…
acies)\n    return best_model\n```\n\n这一行代码是调用之前的train函数训练神经网络，初始化设置的epoch是5，大概也可以训练一个准确度较高的模型\n\n\n```python\nalexnet = train()\n```\n\n为了防止断点或者bug导致jupyter重启之后重新训练模型，这一点经常遇到，本代码是在google的colab上训练的，为了保存训练的结果，还是将模型保存为pkl文件，这样本地就不用训练，直接调用训练之后的模型，之前尝试直接保存整个模型，但是会有莫名其妙的bug，暂时没有解决。这里尝试了另一种保存模型的方式[<sup>[2]</sup>](#ref-2)，直接保存模型的参数，然后将参数传递到初始化的模型架构中，如下所示：\n\n\n```python\n# 保存模型参数\ntorch.save(alexnet, \'../models/alexnet.pkl\')\n```\n\n\n```python\n# 加载模型\nalexnet = AlexNet()\nalexnet.load_state_dict(torch.load(\'../models/alexnet.pkl\'))\n```\n\n\n    AlexNet(\n      (layer1): Sequential(\n        (0): Conv2d(1, 32, kernel_size=(3, 3), stride=(1, 1), padding=(1, 1))\n        (1): MaxPool2d(kernel_size=2, stride=2, padding=0, dilation=1, ceil_mode=False)\n        (2): ReLU(inplace=True)\n      )\n      (layer2): Sequential(\n        (0): Conv2d(32, 64, kernel_size=(3, 3), stride=(1, 1), padding=(1, 1))\n        (1): MaxPool2d(kernel_size=2, stride=2, padding=0, dilation=1, ceil_mode=False)\n        (2): ReLU(inplace=True)\n      )\n      (layer3): Sequential(\n        (0): Conv2d(64, 128, kernel_size=(3, 3), stride=(1, 1), padding=(1, 1))\n      )\n      (layer4): Sequential(\n        (0): Conv2d(128, 256, kernel_size=(3, 3), stride=(1, 1), padding=(1, 1))\n      )\n      (layer5): Sequential(\n        (0): Conv2d(256, 256, kernel_size=(3, 3), stride=(1, 1), padding=(1, 1))\n        (1): MaxPool2d(kernel_size=3, stride=2, padding=0, dilation=1, ceil_mode=False)\n        (2): ReLU(inplace=True)\n      )\n      (fc1): Linear(in_features=2304, out_features=1024, bias=True)\n      (fc2): Linear(in_features=1024, out_features=512, bias=True)\n      (fc3): Linear(in_features=512, out_features=10, bias=True)\n    )\n\n为直观的查看效果，选择一组测试集图片查看分类效果\n\n\n```python\nplt.figure(figsize=(14, 14))\nfor i, (image, label) in enumerate(testloader):\n    predict = torch.argmax(alexnet(image), axis=1)\n    print((predict == label).sum()/label.shape[0])\n    for j in range(image.shape[0]):\n        plt.subplot(8, 8, j+1)\n        plt.imshow(image[j, 0], cmap=\'gray\')\n    
…
l\\n```\\n\\n这一行代码是调用之前的train函数训练神经网络，初始化设置的epoch是5，大概也可以训练一个准确度较高的模型\\n\\n\\n```python\\nalexnet = train()\\n```\\n\\n为了防止断点或者bug导致jupyter重启之后重新训练模型，这一点经常遇到，本代码是在google的colab上训练的，为了保存训练的结果，还是将模型保存为pkl文件，这样本地就不用训练，直接调用训练之后的模型，之前尝试直接保存整个模型，但是会有莫名其妙的bug，暂时没有解决。这里尝试了另一种保存模型的方式[<sup>[2]</sup>](#ref-2)，直接保存模型的参数，然后将参数传递到初始化的模型架构中，如下所示：\\n\\n\\n```python\\n# 保存模型参数\\ntorch.save(alexnet, \'../models/alexnet.pkl\')\\n```\\n\\n\\n```python\\n# 加载模型\\nalexnet = AlexNet()\\nalexnet.load_state_dict(torch.load(\'../models/alexnet.pkl\'))\\n```\\n\\n\\n    AlexNet(\\n      (layer1): Sequential(\\n        (0): Conv2d(1, 32, kernel_size=(3, 3), stride=(1, 1), padding=(1, 1))\\n        (1): MaxPool2d(kernel_size=2, stride=2, padding=0, dilation=1, ceil_mode=False)\\n        (2): ReLU(inplace=True)\\n      )\\n      (layer2): Sequential(\\n        (0): Conv2d(32, 64, kernel_size=(3, 3), stride=(1, 1), padding=(1, 1))\\n        (1): MaxPool2d(kernel_size=2, stride=2, padding=0, dilation=1, ceil_mode=False)\\n        (2): ReLU(inplace=True)\\n      )\\n      (layer3): Sequential(\\n        (0): Conv2d(64, 128, kernel_size=(3, 3), stride=(1, 1), padding=(1, 1))\\n      )\\n      (layer4): Sequential(\\n        (0): Conv2d(128, 256, kernel_size=(3, 3), stride=(1, 1), padding=(1, 1))\\n      )\\n      (layer5): Sequential(\\n        (0): Conv2d(256, 256, kernel_size=(3, 3), stride=(1, 1), padding=(1, 1))\\n        (1): MaxPool2d(kernel_size=3, stride=2, padding=0, dilation=1, ceil_mode=False)\\n        (2): ReLU(inplace=True)\\n      )\\n      (fc1): Linear(in_features=2304, out_features=1024, bias=True)\\n      (fc2): Linear(in_features=1024, out_features=512, bias=True)\\n      (fc3): Linear(in_features=512, out_features=10, bias=True)\\n    )\\n\\n为直观的查看效果，选择一组测试集图片查看分类效果\\n\\n\\n```python\\nplt.figure(figsize=(14, 14))\\nfor i, (image, label) in enumerate(testloader):\\n    predict = torch.argmax(alexnet(image), axis=1)\\n    print((predict == label).sum()/label.shape[0])\\n    for j in range(image.shape[0]):\\n        plt.subplot(8, 8, j+1)\\n        plt.imshow(image[j, 0], cmap=\'
…
